fashionFlatten2.onnx (onnx, 407665 bytes, 4 tensors)

fc1.weight f4 [128, 784]
00000000: 52bf a13c f4bf d33c 0eff 82bb 8d80 183c
00000010: c88c 633d daca 823a 8763 1cbc 4667 d5bc
00000020: 6464 d9bc 2a46 6ebb de8c 4cbc b9b2 6b3c
00000030: 440e 003e f253 2d3d fb48 283d a84d c33d
00000040: ab61 16bb 36aa f4bc 48ce 63bb cd82 9bbc
00000050: fd58 00bd 1053 8e3c 8e32 67bc c16f 7a3b
00000060: ebca fdbb ec5e 193c 6876 383c a2a0 153d
00000070: d741 31bc c616 2c3c 091f 71bb e155 073a
00000080: ac0a c73b 7275 2bbd 7716 b9bc 0d31 01bd
00000090: 759f a2bd 9855 aabd 1a85 5bbc de51 163d
000000a0: c315 b43d 811d 883d e2f4 2f3d 34e8 bb3d
000000b0: cd81 903c df20 37bd 7661 06be 29c5 d9bd
000000c0: 63c4 cdbd 24fc 63bd 2b34 65bd be1b c4bc
000000d0: 2853 acbc e2c3 13bc ef02 46bb fbca b7bb
000000e0: 2435 10bc 126a 923c 07bc 533d 8880 bb3c
000000f0: ce35 083d dbb7 fd3b be99 e4bc 51c7 15bd
00000100: 1e5c 16bc 0229 8abb dcc4 5b3d 6028 85ba
00000110: 6ff1 303d da3e 3e3d 42b5 d43d 09c0 3d3d
00000120: c9bc 053d cb39 25bc e496 76bb 15d4 9fbc
00000130: 6401 7cbd 1429 b43b 32eb 18bc 8ccd 3ebd
00000140: ac6c 813c 5654 ffbc 4707 853c 3de8 67bc
00000150: 9cc5 473d e71c a43c f540 d13b 07a6 d13c
00000160: 6df0 08bd 9dd1 1dbd e26e 513c b2c7 02bb
00000170: 4db0 293c 8466 643a 453d 893c c4b5 72bc
00000180: 0dc4 3d3d 2bc1 fd3c b59a 973d f5cf b73c
00000190: 9ac7 e73c 69dd 453c 3676 33bd 6f78 23bd
000001a0: cee6 97bc 5546 f53c 16ca 5c3c e9b2 ba3c
000001b0: 3805 023c 5f21 1e3b 9085 eebc a912 5d3d
000001c0: d813 ae3c 0a0e f139 08b7 7fbc f243 81bb
000001d0: 8a2c 07bd b758 79bc 360b 6abc 2e95 223d
000001e0: 05f4 f9ba be62 123d ce83 263d 05d5 1c3d
000001f0: 8399 0d3c b5a6 413c c0c0 863d 0564 813d
00000200: d152 9f3c e949 113c c5f0 83bd d147 68bd
00000210: 4e16 d5bc 9ddb ab3c 397b 0c3c d9ec 32bc
00000220: 718c 1f3b 8c9f 37bd 4342 9abc 865d 55ba
00000230: 9fe3 82bb 780e ffbb 5f5a d73c 17bd 6abc
00000240: daba 94bc 5cb0 98bd c70d c5bc b85d 773c
00000250: cbd2 6c3d f2c7 703c aedb 91bc ed1f 343d
00000260: 30f5 043c e403 903c bd05 6f3d 3b21 953c
00000270: e82a da3c 8f7e cabc 2e34 30bd a439 c2bc
00000280: d620 aa3a 708c b6bc 9ff6 463c 796e 993b
00000290: 706d c23c c149 153b 4afa 8cbc fdb2 bd3c
000002a0: 2633 bdbc 1b6e 133d 7597 a5bc 8022 ef3b
000002b0: 9b6c 5ebd c2f8 7fbd 0d5a 1d3c 7ee1 b638
000002c0: d5a0 5f3d d399 3dbd 2c01 94b8 0fc7 e6bc
000002d0: 694c 3f3d 0edf 18ba d73d b43d d3f3 3d3d
000002e0: de2d 3cbc 7d45 f4bb fc43 9fbd e3a3 15bd
000002f0: bed7 ea3c 6ab6 b33c d4ad 20bd 86f6 c4bc
00000300: 8604 fcba 8a46 fa3c be0d 84bc 26ed 543c
00000310: 1e46 7ebc 1ebb c13c c05a f4bc cf11 23bc
00000320: 1a10 a1bd 8907 70bd 4d7a 2d3c 05b8 aa3c
00000330: ff36 643c b2f3 0cbd 76c5 2abd 17bb f5bb
00000340: 7912 51bd 698b 27bd de3e 8b3d 9f45 613c
00000350: a15f c4bc b173 e7bd ae3a f5bd 90ad e9bd
00000360: d809 103c 58a5 153d a314 cabc 2ea5 e23c
00000370: 26ad 36bb cd76 e3bb 0ed1 133d 1234 1f3d
00000380: 14c2 8bbc 257b 5cbd f630 47bd 3018 9abd
00000390: b9e9 eebc 7763 8ebd ee1c 3ebc 1ff9 a13d
000003a0: b0fa e73c bdfd 5ebd 9e00 46bd 277f 35bd
000003b0: 033c 9dbc 4035 853d 15be 9e3d 603f 5d3d
000003c0: 7f87 15bd 9949 edbd 803b cfbd 951d 52bd
000003d0: 0a7f df3c c8ca 8fbb 1ed9 ecb9 e7e3 90bd
000003e0: 5fb1 d1bc 180f 173d 5bba 293c 27a9 113c
000003f0: c794 6a3c 676d 9fbb f880 843b 9256 4abd
0.019744549 0.025848366 -0.00399769 0.009307993 0.05555418 0.0009978667 -0.009545214 -0.026050221
-0.026537128 -0.003635774 -0.012484757 0.0143858725 0.12505442 0.042316385 0.041085225 0.09536296
-0.0022946398 -0.02986632 -0.0034760404 -0.01898327 -0.031334866 0.017373592 -0.014111174 0.0038213583
-0.007745137 0.00936101 0.011258699 0.036530145 -0.01081892 0.0105034765 -0.003679218 0.0005162638
0.0060742702 -0.04186005 -0.02259372 -0.03154092 -0.0794057 -0.08317107 -0.013398433 0.03669917
0.08793213 0.066462524 0.042958148 0.091751486 0.017640019 -0.044709083 -0.13123116 -0.106333084
-0.100472234 -0.055660382 -0.055957954 -0.02393901 -0.021035746 -0.00901887 -0.003021415 -0.005608914
-0.008801732 0.017872844 0.05169299 0.022888437 0.033254437 0.0077428645 -0.027905341 -0.036567036
-0.009177236 -0.0042163143 0.053654537 -0.0010159127 0.043199 0.04644666 0.10386135 0.046325717
0.032650743 -0.01008458 -0.003762656 -0.019510308 -0.061524764 0.005498061 -0.009333419 -0.046582744
0.01579889 -0.031168144 0.016238822 -0.014154491 0.04877244 0.020033313 0.0063859173 0.025591863
-0.033432413 -0.03852998 0.012782784 -0.0019955453 0.010356975 0.0008712786 0.016752848 -0.014813844
0.046329547 0.030975899 0.07402555 0.022438029 0.02829342 0.012076714 -0.043813907 -0.039909776
-0.018542673 0.029940763 0.013475915 0.02279039 0.007935815 0.0024128777 -0.029116422 0.053972874
0.021249697 0.00045977562 -0.015607603 -0.0039448673 -0.03300146 -0.015218905 -0.014284899 0.03969305
-0.0019069916 0.0357387 0.040653042 0.03828909 0.008642557 0.011819531 0.06579733 0.06317905
0.01944867 0.008867719 -0.064424075 -0.056709114 -0.026011612 0.020978743 0.0085743 -0.010920727
0.0024345184 -0.04482989 -0.018830424 -0.0008139241 -0.0039944197 -0.007783707 0.02628821 -0.014327309
-0.018155504 -0.07455513 -0.024054421 0.015098028 0.057818215 0.014696108 -0.017804947 0.04397576
0.008115098 0.01757998 0.05835508 0.018204322 0.026631787 -0.024718551 -0.043018512 -0.023709126
0.0012979757 -0.022283763 0.01214376 0.004682359 0.023733824 0.0022779556 -0.01720919 0.023156637
-0.023095679 0.035993677 -0.020213822 0.007297814 -0.054302793 -0.062493093 0.009603989 8.7204375e-05
0.05459674 -0.046289276 -7.057408e-05 -0.02817109 0.04670373 -0.00058315776 0.088008575 0.046375107
-0.011485545 -0.0074545727 -0.07776639 -0.036533248 0.028667327 0.021937568 -0.039228275 -0.024043333
-0.0019227422 0.030551214 -0.016119834 0.012995994 -0.015519647 0.023648795 -0.02982843 -0.009952976
-0.07864399 -0.058600936 0.010588241 0.0208397 0.013929128 -0.034412093 -0.04169222 -0.0074991095
-0.051043008 -0.040904436 0.067991 0.013749509 -0.02397138 -0.11301363 -0.11974083 -0.114100575
0.008791409 0.036534637 -0.024668043 0.027666654 -0.00278742 -0.0069416524 0.036088042 0.038868017
-0.017060317 -0.053828377 -0.048630677 -0.07524145 -0.029164182 -0.06952565 -0.011603577 0.07908844
0.02831778 -0.054441202 -0.048340432 -0.044310715 -0.019193655 0.06504297 0.07751099 0.054015517
-0.036506172 -0.11586303 -0.101187706 -0.051297743 0.027282257 -0.004388187 -0.00045175193 -0.07074719
-0.025597272 0.03687963 0.010359372 0.008890427 0.014317698 -0.0048653367 0.0040436946 -0.049398966

fc1.bias f4 [128]
00000000: f2f0 65bd 9928 d13c 4cc0 59bd 9e43 48bc
00000010: 0e39 d43c dfc8 f03c b16e a4bb 73df 043c
00000020: 2303 9b3c 769c 16bc 4691 72bc 1365 013d
00000030: 3342 22bc 4ba6 533c 3a98 0cbc 086f b83c
00000040: 6b7e a93b c43e a23c e79e 46bc 9b96 e0bc
00000050: 195e 9d3b e6c1 3ebd c096 87bc 2e41 853c
00000060: c9a5 423c 7b34 8a3d a6f8 74bc 5382 f4bc
00000070: b8dc e63c 1a22 25bd 150a 2d3d 522a dbbc
00000080: 7897 233d ad94 5b3d 7051 7f3c 5428 9b3c
00000090: 747a 0bbd 6ca3 afbc 481a 9abc ca94 c6bc
000000a0: 13ea 80bc 93d8 8ebc be60 4a3c 298e 41bc
000000b0: 8855 1dbd 76e1 1e3c b63f f7bc 87a6 3e3d
000000c0: ca26 b4bb 9e0f 153d 9cca 863b 3b9e 18bd
000000d0: 2038 87bb 7692 133d d88d 45bd 278c ac3b
000000e0: 4c53 343d aee1 7e3c a85a 243d 8a24 7d3c
000000f0: 04b9 313b 800b 38bd 2b4c cabc e7a5 263d
00000100: 38c9 68bc f946 423c 8ce1 72bc 9b19 f0bc
00000110: c76c 8dbc 8d71 dcbc f03c 2a3d 5e8e 34bd
00000120: 35c4 58bc c8e7 183c 99c7 8bbc af6d 80bd
00000130: 5dad ef3c 2840 fdbc 0596 cfbc 0a03 f2ba
00000140: 1496 21bd 6336 8b3c f99b 723c dd04 83bd
00000150: 0f06 193c 1848 db3b df8d e3bc d51b df3c
00000160: d1f7 00bd 7089 cd3b 880d be3c 256a 273c
00000170: 0a13 fb3c c024 6bbd c91f 90bc 18aa 873c
00000180: 5f58 9b3c 8c9f 1bbc 3069 493d decc 4f3c
00000190: dabd 0fbd 1719 1c3d e48a 7ebc fb09 6c3d
000001a0: d42b 88bb 72d4 13bc 72f9 8b3c 02a7 ccbc
000001b0: a6e1 b8bc c864 3c3b 15ac 0b3d e62f 843c
000001c0: 1f98 83bc 7916 293c 9e04 d93c 10e9 4ebc
000001d0: cd62 b13b c0ea d33c 4263 e53c 8e47 c23c
000001e0: 1955 2fbd d040 643c 696e 9f3b 8275 20bd
000001f0: 61ce 15bd 723f d7bc d54d 793d 497e 183b
-0.056137986 0.025532054 -0.053161904 -0.012223152 0.025906112 0.029392658 -0.0050180783 0.008109915
0.018922394 -0.009192577 -0.014805144 0.031590533 -0.009903478 0.012918065 -0.0085812155 0.022513881
0.005172541 0.01980532 -0.012122846 -0.027415564 0.004802477 -0.046571635 -0.016551375 0.016266432
0.011880347 0.06748291 -0.0149518605 -0.0298473 0.028181419 -0.040315725 0.042245943 -0.026753578
0.039939374 0.053608585 0.015583381 0.018940128 -0.034052327 -0.02144023 -0.01881136 -0.02424087
-0.015736615 -0.017437255 0.012352167 -0.011813679 -0.038411647 0.009697309 -0.030181747 0.04654553
-0.005497788 0.036391847 0.0041135084 -0.037260275 -0.0041265637 0.036028348 -0.048230976 0.005265731
0.04402475 0.015556736 0.04012552 0.015450606 0.0027118335 -0.044932842 -0.024694523 0.04068556
-0.014208131 0.0118577415 -0.014824282 -0.029309085 -0.017263783 -0.026909614 0.04156202 -0.044081084
-0.013230373 0.009332605 -0.017062949 -0.062709205 0.02925747 -0.030914381 -0.02534009 -0.001846404
-0.039449766 0.016993707 0.014807695 -0.06397412 0.009339823 0.006691944 -0.02777761 0.027234951
-0.031486336 0.0062724873 0.023199812 0.010218178 0.030648727 -0.057408094 -0.017593281 0.0165606
0.018963037 -0.009498488 0.04917258 0.0126831215 -0.035093166 0.038109865 -0.015536044 0.057626706
-0.0041556153 -0.009022819 0.017086718 -0.02498198 -0.022568535 0.0028746594 0.034099657 0.016136121
-0.016063748 0.010320299 0.02649146 -0.012628809 0.0054133893 0.025868773 0.028001431 0.02371576
-0.042805765 0.013931468 0.004865457 -0.039174564 -0.03657377 -0.02627537 0.060865242 0.0023268631

fc2.weight f4 [10, 128]
00000000: fb72 0b3c 6dc2 edbd bfd9 763c 4235 513c
00000010: 3ad6 3a3c 4a20 203e ffb0 debd 978c 97bd
00000020: a5e1 62be 6282 3dbe cd80 503d ae8b 5cbe
00000030: 21d3 223c e103 83bd 6ef8 e63a 32e2 39bd
00000040: 874f db3d f87b d73d df34 ccbd 3a31 31be
00000050: fb07 a93d 3868 9c3a 3dd8 1dbb 4e9a 06be
00000060: 72f8 a43d da79 453e b221 f3bd b27a edbd
00000070: 95a3 b33d a6b5 dbb8 9c74 5a3c 8565 c33d
00000080: ca62 be3d dab4 603d 770f 6c3d 16ad c6bd
00000090: 7f9b 8bbe 3569 583d e078 573c dab8 8e3d
000000a0: 40ae cebd b944 dcbc d81a fbbd 68ac 62bd
000000b0: d788 cb3d 2613 2dbe 1f52 a8bd b387 663d
000000c0: 2dba 0d3d 6fda 02be 4315 5b3e 7e39 8cbe
000000d0: 053d 243e 9590 28bc 6f98 c2bd 4100 41bd
000000e0: 632e 493d 9338 30bd 4437 37bd 2ce1 6b3c
000000f0: 05bc 843d b5bb 2b3e 2383 903c 30f1 00be
00000100: 2dac 1dbd 1bf2 133e d901 38be 3742 d8bc
00000110: 4a9b 673d 01f0 a23d 8d5e a4bd 7fa1 1f3e
00000120: 57e3 c8bd ddee fd3c 0096 893d b011 89bd
00000130: fedf 9bbc 8e78 62be 351b 3ebd 8b66 883b
00000140: 27d8 0e3e 4366 aebd 0de7 183e 784b 26be
00000150: dbd0 0e3c 463c b7bc 0e00 afbd e79c 06be
00000160: 3b0a 45be a1e2 da3a a485 eebc 5355 6e3d
00000170: 52ac 993d ceef 143c 3e55 b1bd e782 503d
00000180: 054d a4bb a6cd af3d 7166 443d 03c7 fdbc
00000190: 3778 b53d 3341 cd3c a856 503d 4039 08be
000001a0: 3770 983d 2471 843d 996e ccbc 62a3 57be
000001b0: 8715 07bd e89c 03bd 0cbf 00be 0cf1 973c
000001c0: d509 f03c 757d fabd 72d6 99bc 17b5 e93c
000001d0: acd4 65bd 70f6 03bd 47c4 213d 82a0 443d
000001e0: c868 9fbd 4dc5 813d 26ba 2bbc bcef 943c
000001f0: 459d 4dbb 92cb 123c 9ef6 9cbb 2cdb 973d
00000200: 689e 5fbe fe68 543c 6ab2 4cbe 227b bc3c
00000210: ca34 dc3d e4bc f9bc 58ac d43d 9fec 613c
00000220: 1449 ccbc a859 c43d 4845 41be bdcc d9bc
00000230: cdfc ddbd 483b 413d 84c9 3dbe e67e 19be
00000240: b514 90bc 2455 acbd 2810 c73d 6926 dcbd
00000250: e0c0 ea3d 50dd 56bc 7bd8 8e3e 4ac0 513d
00000260: 99d8 b93d 0c63 243d fc0e 06be 736a 18be
00000270: b1ff 69bd 1dbe 1abd 0402 56be 682f 973e
00000280: 6a11 bfbd c01b 38be 5154 a23c f592 07bd
00000290: 45f0 38be 1e7d 0dbe 570f 343d 4f6a 7ebe
000002a0: ac9c 443c 5164 05bd 30bf a3be abbe 1e3e
000002b0: c098 5dbd dd9d 7f3e 1e77 60bd 0fbd 83be
000002c0: 8355 373e d889 3cbe db7d 8dbe 1e28 d9bd
000002d0: 703d 44be 0c5d a5bd 0669 013e 0bd8 ae3d
000002e0: ca61 853d b355 9fbd d611 1fbe 27cb 8a3d
000002f0: 5ab5 ea3d 5ef5 1f3e 904c 8b3c c162 dd3d
00000300: fe14 40be ce8c 9a3d 8efa f83d 5b7e 04bd
00000310: 9a16 5ebe 5f99 2c3e fd15 0bbe a3bb 4e3d
00000320: e297 cc3c 09cc 8abe 95c1 1ebe fd85 2abd
00000330: 0caf 03bd 1bf1 e43c 6425 e4bd dd1f e7bd
00000340: 1527 57bd 5afd 75bd eb49 a0bc 7613 08bb
00000350: 039b 953d 931b 0c3e 6cfe acbd 8c59 7d3e
00000360: 5220 463d 3e32 763e 4519 b73d 8aeb 603d
00000370: 9ab4 cc3d 3167 023e 3aad 0cbd 6701 5d3d
00000380: 65fa adbe 39cf 85bd 1dbc 79bd 84a2 08bd
00000390: 6bea aebc 72a8 8dbe c457 a83c 63e4 c6bc
000003a0: a06b bd3c 9b87 c83d e40f 7f37 78da 8cb9
000003b0: 666d 14be 1d44 193d 32d8 b83c 52f4 8dbc
000003c0: f478 25be 0cb9 5bbe ebb7 f43c a2b5 a4bc
000003d0: 8b4d 44be 013a 47be 01eb cabd 82c7 d4bc
000003e0: a6e5 c73d c80a 24bd fc91 393e 9bf2 f83d
000003f0: 4e95 2bbe c2d6 493e ea45 cebb 68cc 29be
0.0085113 -0.116093494 0.015066563 0.012769045 0.011403615 0.15637317 -0.10873603 -0.07399862
-0.22156389 -0.18506768 0.050904084 -0.21537659 0.009938032 -0.06397224 0.0017621645 -0.045381732
0.10708528 0.10521692 -0.09971022 -0.17303935 0.08253475 0.0011932915 -0.0024085187 -0.131448
0.080552 0.19284764 -0.11871661 -0.11595668 0.08771435 -0.000104765684 0.013333466 0.09540848
0.09296186 0.054859973 0.057631936 -0.09700982 -0.27267072 0.05283471 0.013151377 0.069688514
-0.10091829 -0.026888238 -0.122609794 -0.0553402 0.099382095 -0.16901836 -0.08218788 0.056281757
0.03460138 -0.12778638 0.2139483 -0.27387613 0.16038902 -0.010288377 -0.09501731 -0.047119383
0.049116503 -0.043022703 -0.04473044 0.014396947 0.064811744 0.16770823 0.017640656 -0.12592006
-0.038494278 0.14447825 -0.17969455 -0.026398761 0.05654458 0.07955933 -0.08025847 0.1558895
-0.09808987 0.030997688 0.06718063 -0.06692827 -0.019027706 -0.221163 -0.046412665 0.0041626147
0.13949643 -0.085155986 0.14931889 -0.16239727 0.008716787 -0.022367608 -0.08544932 -0.13145791
-0.19242184 0.0016699621 -0.02911646 0.05818684 0.075035706 0.009090377 -0.08658837 0.05090609
-0.0050140643 0.08584146 0.04794926 -0.030978685 0.0886082 0.025055503 0.05086389 -0.13303089
0.07443278 0.06466892 -0.02495508 -0.2105842 -0.032979514 -0.03213206 -0.12572879 0.018547557
0.029301563 -0.1223096 -0.018779013 0.028528733 -0.056111023 -0.032217443 0.039493825 0.048004635
-0.07783657 0.0633646 -0.010481393 0.01818072 -0.0031374258 0.008959668 -0.0047901412 0.074148506
-0.21837771 0.012964485 -0.19989935 0.023007933 0.10752256 -0.030485578 0.103844345 0.013789325
-0.02493719 0.09587413 -0.18874085 -0.026586885 -0.108392335 0.047175676 -0.18533903 -0.14989814
-0.017587999 -0.08414677 0.097198784 -0.10749514 0.11462569 -0.013114288 0.27899536 0.05120877
0.09074516 0.04013352 -0.13091654 -0.14884357 -0.057128612 -0.037778962 -0.20899206 0.29528356
-0.09329493 -0.17979336 0.019815596 -0.033099134 -0.18060406 -0.1381726 0.04395994 -0.24845241
0.012000244 -0.032566372 -0.31981802 0.15502422 -0.054100752 0.24962564 -0.0548011 -0.25730178
0.17903714 -0.18411958 -0.27635083 -0.10603355 -0.19164062 -0.08074388 0.1263772 0.08537301
0.065127924 -0.07780018 -0.15534148 0.067770295 0.11460371 0.15620944 0.017004281 0.108098514
-0.18758008 0.075463876 0.121571645 -0.032347064 -0.2168831 0.16855381 -0.13582607 0.050471913
0.024974767 -0.2710879 -0.15503533 -0.041631687 -0.03214936 0.027947 -0.11139944 -0.11285374
-0.052527506 -0.060056068 -0.019566497 -0.0020763553 0.07304957 0.13682394 -0.084469646 0.2474119
0.048370667 0.24042603 0.08940367 0.054912128 0.099953845 0.12734677 -0.03434489 0.053956416
-0.33980098 -0.06533665 -0.060970414 -0.033358112 -0.021352014 -0.27667576 0.020549662 -0.024278825
0.023122609 0.0979149 1.5202884e-05 -0.00026865653 -0.14494857 0.037418474 0.022564027 -0.017328415
-0.16159421 -0.21457309 0.029872855 -0.02010614 -0.19170205 -0.1945572 -0.09908105 -0.025974039
0.09760599 -0.040049344 0.18122095 0.12155648 -0.16756174 0.1971083 -0.0062949555 -0.16581881

fc2.bias f4 [10]
00000000: 910a 91bd b249 c23d 5241 293b 2aac 7f3d
00000010: 9638 993d 5647 943d f4b9 adbd a8b5 8d3d
00000020: a2b6 343c 8af9 493d
-0.070820935 0.094867125 0.0025826287 0.062420048 0.07481496 0.07240169 -0.08482733 0.06919414
0.011029871 0.049310245
